…
Chars vocab: ['a', 'b', 'c', 'd', 'e', 'f', 'g', 'h', 'i', 'j', 'k', 'l', 'm', 'n', 'o', 'p', 'q', 'r', 's', 't', 'u', 'v', 'w', 'x', 'y', 'z', '0', '1', '2', '3', '4', '5', '6', '7', '8', '9', '!', '"', '#', '$', '%', '&', "'", '(', ')', '*', '+', ',', '-', '.', '/', ':', ';', '<', '=', '>', '?', '@', '[', '\\', ']', '^', '_', '`', '{', '|', '}', '~', '\n', ' ']
Chars vocab size: 70
X_train.shape: (64757, 100)
Build model...
Fit model...
_________________________________________________________________
Layer (type)                 Output Shape              Param #
=================================================================
input_1 (InputLayer)         (None, 100)               0
_________________________________________________________________
lambda_1 (Lambda)            (None, 100, 70)           0
_________________________________________________________________
conv1d_1 (Conv1D)            (None, 100, 256)          125696
_________________________________________________________________
max_pooling1d_1 (MaxPooling1 (None, 50, 256)           0
_________________________________________________________________
conv1d_2 (Conv1D)            (None, 50, 512)           655872
_________________________________________________________________
max_pooling1d_2 (MaxPooling1 (None, 25, 512)           0
_________________________________________________________________
conv1d_3 (Conv1D)            (None, 25, 512)           786944
_________________________________________________________________
conv1d_4 (Conv1D)            (None, 25, 1024)          1049600
_________________________________________________________________
max_pooling1d_3 (MaxPooling1 (None, 12, 1024)          0
_________________________________________________________________
flatten_1 (Flatten)          (None, 12288)             0
_________________________________________________________________
dense_1 (Dense)              (None, 2048)              25167872
_________________________________________________________________
dropout_1 (Dropout)          (None, 2048)              0
_________________________________________________________________
output (Dense)               (None, 1007)              2063343
=================================================================
Total params: 29,849,327
Trainable params: 29,849,327
Non-trainable params: 0
_________________________________________________________________
Train on 64757 samples, validate on 27754 samples
Epoch 1/200
2018-01-22 00:19:38.791520: W tensorflow/core/platform/cpu_feature_guard.cc:45] The TensorFlow library wasn't compiled to use SSE4.1 instructions, but these are available on your machine and could speed up CPU computations.
…
