Using TensorFlow backend.
Loading data...
Creating vocab...
Chars vocab: ['a', 'b', 'c', 'd', 'e', 'f', 'g', 'h', 'i', 'j', 'k', 'l', 'm', 'n', 'o', 'p', 'q', 'r', 's', 't', 'u', 'v', 'w', 'x', 'y', 'z', ' ']
Chars vocab size: 27
X_train.shape: (64757, 100)
Build model...
Fit model...
_________________________________________________________________
Layer (type)                 Output Shape              Param #
=================================================================
input_1 (InputLayer)         (None, 100)               0
_________________________________________________________________
lambda_1 (Lambda)            (None, 100, 27)           0
_________________________________________________________________
conv1d_1 (Conv1D)            (None, 100, 512)          97280
_________________________________________________________________
max_pooling1d_1 (MaxPooling1 (None, 50, 512)           0
_________________________________________________________________
conv1d_2 (Conv1D)            (None, 50, 512)           1835520
_________________________________________________________________
max_pooling1d_2 (MaxPooling1 (None, 25, 512)           0
_________________________________________________________________
conv1d_3 (Conv1D)            (None, 25, 512)           786944
_________________________________________________________________
conv1d_4 (Conv1D)            (None, 25, 512)           786944
_________________________________________________________________
conv1d_5 (Conv1D)            (None, 23, 512)           786944
_________________________________________________________________
conv1d_6 (Conv1D)            (None, 21, 512)           786944
_________________________________________________________________
max_pooling1d_3 (MaxPooling1 (None, 10, 512)           0
_________________________________________________________________
flatten_1 (Flatten)          (None, 5120)              0
_________________________________________________________________
dense_1 (Dense)              (None, 2048)              10487808
_________________________________________________________________
dropout_1 (Dropout)          (None, 2048)              0
_________________________________________________________________
dense_2 (Dense)              (None, 2048)              4196352
_________________________________________________________________
dropout_2 (Dropout)          (None, 2048)              0
_________________________________________________________________
output (Dense)               (None, 1007)              2063343
=================================================================
Total params: 21,828,079
Trainable params: 21,828,079
Non-trainable params: 0
_________________________________________________________________
Train on 64757 samples, validate on 27754 samples
Epoch 1/200
2018-03-09 02:44:58.671443: W tensorflow/core/platform/cpu_feature_guard.cc:45] The TensorFlow library wasn't compiled to use SSE4.1 instructions, but these are available on your machine and could speed up CPU computations.
…
