…
 50 37 13 66 50 12 67 26 50 37 66 61 58 50 37 67 61 17 67 20 50 37 37 28 57
 50  0 66 17 26  0 20 28 50 37 13 66 50 57 20 50 66 28 20 58 50 37 21 20 58
 50 21 20 28 57 50 58 37 21 20 46 50 66 61 50 57 61 50 58 26 50 58 12 67 36
 20 58 50 46 61 58 36 21 50 37 13 66]
y:0
____________________________________________________________________________________________________
Layer (type)                     Output Shape          Param #     Connected to                     
====================================================================================================
input_2 (InputLayer)             (None, 512)           0                                            
____________________________________________________________________________________________________
lambda_1 (Lambda)                (None, 512, 71)       0           input_2[0][0]                    
____________________________________________________________________________________________________
conv1d_1 (Conv1D)                (None, 508, 128)      45568       lambda_1[0][0]                   
____________________________________________________________________________________________________
conv1d_3 (Conv1D)                (None, 506, 192)      95616       lambda_1[0][0]                   
____________________________________________________________________________________________________
max_pooling1d_1 (MaxPooling1D)   (None, 254, 128)      0           conv1d_1[0][0]                   
____________________________________________________________________________________________________
max_pooling1d_3 (MaxPooling1D)   (None, 253, 192)      0           conv1d_3[0][0]                   
____________________________________________________________________________________________________
conv1d_2 (Conv1D)                (None, 250, 256)      164096      max_pooling1d_1[0][0]            
____________________________________________________________________________________________________
conv1d_4 (Conv1D)                (None, 249, 320)      307520      max_pooling1d_3[0][0]            
____________________________________________________________________________________________________
max_pooling1d_2 (MaxPooling1D)   (None, 125, 256)      0           conv1d_2[0][0]                   
____________________________________________________________________________________________________
max_pooling1d_4 (MaxPooling1D)   (None, 124, 320)      0           conv1d_4[0][0]                   
____________________________________________________________________________________________________
global_max_pooling1d_1 (GlobalMa (None, 256)           0           max_pooling1d_2[0][0]            
____________________________________________________________________________________________________
global_max_pooling1d_2 (GlobalMa (None, 320)           0           max_pooling1d_4[0][0]            
____________________________________________________________________________________________________
dense_1 (Dense)                  (None, 128)           32896       global_max_pooling1d_1[0][0]     
____________________________________________________________________________________________________
dense_2 (Dense)                  (None, 128)           41088       global_max_pooling1d_2[0][0]     
____________________________________________________________________________________________________
concatenate_1 (Concatenate)      (None, 256)           0           dense_1[0][0]                    
                                                                   dense_2[0][0]                    
====================================================================================================
Total params: 686,784
Trainable params: 686,784
Non-trainable params: 0
____________________________________________________________________________________________________
_________________________________________________________________
Layer (type)                 Output Shape              Param #   
=================================================================
input_1 (InputLayer)         (None, 15, 512)           0         
_________________________________________________________________
time_distributed_1 (TimeDist (None, 15, 256)           686784    
_________________________________________________________________
lstm_1 (LSTM)                (None, 15, 92)            128432    
_________________________________________________________________
lstm_2 (LSTM)                (None, 92)                68080     
_________________________________________________________________
dense_3 (Dense)              (None, 1)                 93        
=================================================================
Total params: 883,389
Trainable params: 883,389
Non-trainable params: 0
_________________________________________________________________
Train on 20000 samples, validate on 2500 samples
Epoch 1/30
2018-01-21 06:53:11.166234: W tensorflow/core/platform/cpu_feature_guard.cc:45] The TensorFlow library wasn't compiled to use SSE4.1 instructions, but these are available on your machine and could speed up CPU computations.
…
